…
Instructions for updating:
Colocations handled automatically by placer.
WARNING:tensorflow:From /home/ec2-user/anaconda3/envs/tensorflow_p36/lib/python3.6/site-packages/tensorflow/python/ops/math_ops.py:3066: to_int32 (from tensorflow.python.ops.math_ops) is deprecated and will be removed in a future version.
Instructions for updating:
Use tf.cast instead.
VGG BLOCK 1 model
_________________________________________________________________
Layer (type)                 Output Shape              Param #   
=================================================================
input_1 (InputLayer)         (None, 32, 32, 3)         0         
_________________________________________________________________
conv2d_1 (Conv2D)            (None, 32, 32, 32)        896       
_________________________________________________________________
activation_1 (Activation)    (None, 32, 32, 32)        0         
_________________________________________________________________
conv2d_2 (Conv2D)            (None, 32, 32, 32)        9248      
_________________________________________________________________
activation_2 (Activation)    (None, 32, 32, 32)        0         
_________________________________________________________________
max_pooling2d_1 (MaxPooling2 (None, 16, 16, 32)        0         
_________________________________________________________________
flatten_1 (Flatten)          (None, 8192)              0         
_________________________________________________________________
dense_1 (Dense)              (None, 128)               1048704   
_________________________________________________________________
activation_3 (Activation)    (None, 128)               0         
_________________________________________________________________
dense_2 (Dense)              (None, 10)                1290      
_________________________________________________________________
activation_4 (Activation)    (None, 10)                0         
=================================================================
Total params: 1,060,138
Trainable params: 1,060,138
Non-trainable params: 0
_________________________________________________________________
None
Train on 50000 samples, validate on 10000 samples
Epoch 1/100

   64/50000 [..............................] - ETA: 42:05 - loss: 2.8415 - acc: 0.0781
  896/50000 [..............................] - ETA: 3:00 - loss: 2.3853 - acc: 0.1049 
…
47552/50000 [===========================>..] - ETA: 0s - loss: 7.9018e-04 - acc: 1.0000
48448/50000 [============================>.] - ETA: 0s - loss: 7.9075e-04 - acc: 1.0000
49344/50000 [============================>.] - ETA: 0s - loss: 7.9034e-04 - acc: 1.0000
50000/50000 [==============================] - 3s 65us/step - loss: 7.9107e-04 - acc: 1.0000 - val_loss: 2.4887 - val_acc: 0.6637
VGG 1 block Loss: 2.489, Acc: 66.370

VGG BLOCK 2 model
_________________________________________________________________
Layer (type)                 Output Shape              Param #   
=================================================================
input_2 (InputLayer)         (None, 32, 32, 3)         0         
_________________________________________________________________
conv2d_5 (Conv2D)            (None, 32, 32, 64)        1792      
_________________________________________________________________
activation_7 (Activation)    (None, 32, 32, 64)        0         
_________________________________________________________________
conv2d_6 (Conv2D)            (None, 32, 32, 64)        36928     
_________________________________________________________________
activation_8 (Activation)    (None, 32, 32, 64)        0         
_________________________________________________________________
max_pooling2d_3 (MaxPooling2 (None, 16, 16, 64)        0         
_________________________________________________________________
flatten_2 (Flatten)          (None, 16384)             0         
_________________________________________________________________
dense_3 (Dense)              (None, 128)               2097280   
_________________________________________________________________
activation_9 (Activation)    (None, 128)               0         
_________________________________________________________________
dense_4 (Dense)              (None, 10)                1290      
_________________________________________________________________
activation_10 (Activation)   (None, 10)                0         
=================================================================
Total params: 2,137,290
Trainable params: 2,137,290
Non-trainable params: 0
_________________________________________________________________
None
Train on 50000 samples, validate on 10000 samples
Epoch 1/100

   64/50000 [..............................] - ETA: 4:11 - loss: 2.6147 - acc: 0.0625
  768/50000 [..............................] - ETA: 23s - loss: 2.3475 - acc: 0.1211 
…
48448/50000 [============================>.] - ETA: 0s - loss: 7.5088e-04 - acc: 1.0000
49216/50000 [============================>.] - ETA: 0s - loss: 7.5081e-04 - acc: 1.0000
49984/50000 [============================>.] - ETA: 0s - loss: 7.5336e-04 - acc: 1.0000
50000/50000 [==============================] - 4s 77us/step - loss: 7.5336e-04 - acc: 1.0000 - val_loss: 2.2140 - val_acc: 0.6803
VGG 2 block Loss: 2.214, Acc: 68.030

VGG BLOCK 3 model
_________________________________________________________________
Layer (type)                 Output Shape              Param #   
=================================================================
input_3 (InputLayer)         (None, 32, 32, 3)         0         
_________________________________________________________________
conv2d_11 (Conv2D)           (None, 32, 32, 128)       3584      
_________________________________________________________________
activation_15 (Activation)   (None, 32, 32, 128)       0         
_________________________________________________________________
conv2d_12 (Conv2D)           (None, 32, 32, 128)       147584    
_________________________________________________________________
activation_16 (Activation)   (None, 32, 32, 128)       0         
_________________________________________________________________
max_pooling2d_6 (MaxPooling2 (None, 16, 16, 128)       0         
_________________________________________________________________
flatten_3 (Flatten)          (None, 32768)             0         
_________________________________________________________________
dense_5 (Dense)              (None, 128)               4194432   
_________________________________________________________________
activation_17 (Activation)   (None, 128)               0         
_________________________________________________________________
dense_6 (Dense)              (None, 10)                1290      
_________________________________________________________________
activation_18 (Activation)   (None, 10)                0         
=================================================================
Total params: 4,346,890
Trainable params: 4,346,890
Non-trainable params: 0
_________________________________________________________________
None
Train on 50000 samples, validate on 10000 samples
Epoch 1/100

   64/50000 [..............................] - ETA: 5:52 - loss: 2.5442 - acc: 0.1250
  576/50000 [..............................] - ETA: 43s - loss: 2.4057 - acc: 0.1198 
…
