…
Instructions for updating:
Colocations handled automatically by placer.
WARNING:tensorflow:From /home/ec2-user/anaconda3/envs/tensorflow_p36/lib/python3.6/site-packages/tensorflow/python/ops/math_ops.py:3066: to_int32 (from tensorflow.python.ops.math_ops) is deprecated and will be removed in a future version.
Instructions for updating:
Use tf.cast instead.
VGG 3 Blocks with Data Augmentation
_________________________________________________________________
Layer (type)                 Output Shape              Param #   
=================================================================
input_1 (InputLayer)         (None, 32, 32, 3)         0         
_________________________________________________________________
conv2d_5 (Conv2D)            (None, 32, 32, 128)       3584      
_________________________________________________________________
activation_5 (Activation)    (None, 32, 32, 128)       0         
_________________________________________________________________
conv2d_6 (Conv2D)            (None, 32, 32, 128)       147584    
_________________________________________________________________
activation_6 (Activation)    (None, 32, 32, 128)       0         
_________________________________________________________________
max_pooling2d_3 (MaxPooling2 (None, 16, 16, 128)       0         
_________________________________________________________________
flatten_1 (Flatten)          (None, 32768)             0         
_________________________________________________________________
dense_1 (Dense)              (None, 128)               4194432   
_________________________________________________________________
activation_7 (Activation)    (None, 128)               0         
_________________________________________________________________
dense_2 (Dense)              (None, 10)                1290      
_________________________________________________________________
activation_8 (Activation)    (None, 10)                0         
=================================================================
Total params: 4,346,890
Trainable params: 4,346,890
Non-trainable params: 0
_________________________________________________________________
None
Epoch 1/100

  1/781 [..............................] - ETA: 40:21 - loss: 2.4290 - acc: 0.1719
  9/781 [..............................] - ETA: 4:30 - loss: 2.4511 - acc: 0.1441 
…
