…
Please use `rate` instead of `keep_prob`. Rate should be set to `rate = 1 - keep_prob`.
WARNING:tensorflow:From /home/ec2-user/anaconda3/envs/tensorflow_p36/lib/python3.6/site-packages/tensorflow/python/ops/math_ops.py:3066: to_int32 (from tensorflow.python.ops.math_ops) is deprecated and will be removed in a future version.
Instructions for updating:
Use tf.cast instead.
VGG 3 Blocks with Dropout
_________________________________________________________________
Layer (type)                 Output Shape              Param #   
=================================================================
input_1 (InputLayer)         (None, 32, 32, 3)         0         
_________________________________________________________________
conv2d_5 (Conv2D)            (None, 32, 32, 128)       3584      
_________________________________________________________________
activation_5 (Activation)    (None, 32, 32, 128)       0         
_________________________________________________________________
conv2d_6 (Conv2D)            (None, 32, 32, 128)       147584    
_________________________________________________________________
activation_6 (Activation)    (None, 32, 32, 128)       0         
_________________________________________________________________
max_pooling2d_3 (MaxPooling2 (None, 16, 16, 128)       0         
_________________________________________________________________
dropout_3 (Dropout)          (None, 16, 16, 128)       0         
_________________________________________________________________
flatten_1 (Flatten)          (None, 32768)             0         
_________________________________________________________________
dense_1 (Dense)              (None, 128)               4194432   
_________________________________________________________________
activation_7 (Activation)    (None, 128)               0         
_________________________________________________________________
dropout_4 (Dropout)          (None, 128)               0         
_________________________________________________________________
dense_2 (Dense)              (None, 10)                1290      
_________________________________________________________________
activation_8 (Activation)    (None, 10)                0         
=================================================================
Total params: 4,346,890
Trainable params: 4,346,890
Non-trainable params: 0
_________________________________________________________________
None
Train on 50000 samples, validate on 10000 samples
Epoch 1/100

   64/50000 [..............................] - ETA: 11:04:51 - loss: 2.6031 - acc: 0.1094
  512/50000 [..............................] - ETA: 1:22:26 - loss: 2.4998 - acc: 0.1055 
…
